…
INFO:root:MultiWOZ | DataLoader valid | Total Batches 225 | Batch Size 32 | time 1.88
INFO:root:====================================================================================================
INFO:root:====================================================================================================
INFO:root:Source Loaded: Total 7372 samples
INFO:root:MultiWOZ | DataLoader test | Total Batches 226 | Batch Size 32 | time 1.26
INFO:root:====================================================================================================
INFO:root:PEDP_model(
  (dropout): Dropout(p=0.2, inplace=False)
  (state_encoder): Sequential(
    (0): Linear(in_features=553, out_features=200, bias=True)
    (1): ReLU()
    (2): Dropout(p=0.2, inplace=False)
    (3): Linear(in_features=200, out_features=100, bias=True)
  )
  (state_reconstruction_head): Sequential(
    (0): Linear(in_features=100, out_features=200, bias=True)
    (1): ReLU()
    (2): Dropout(p=0.2, inplace=False)
    (3): Linear(in_features=200, out_features=553, bias=True)
  )
  (world_rnn): GRU(64, 100)
  (act_emb): Embedding(166, 64)
  (plan_head): Sequential(
    (0): Linear(in_features=100, out_features=166, bias=True)
  )
  (term_head): Sequential(
    (0): Linear(in_features=200, out_features=2, bias=True)
  )
  (last_layers): ModuleList(
    (0): Sequential(
      (0): Linear(in_features=200, out_features=41, bias=True)
      (1): ReLU()
      (2): Dropout(p=0.2, inplace=False)
      (3): Linear(in_features=41, out_features=2, bias=True)
    )
    (1): Sequential(
      (0): Linear(in_features=200, out_features=41, bias=True)
      (1): ReLU()
      (2): Dropout(p=0.2, inplace=False)
      (3): Linear(in_features=41, out_features=2, bias=True)
    )
    (2): Sequential(
      (0): Linear(in_features=200, out_features=41, bias=True)
      (1): ReLU()
      (2): Dropout(p=0.2, inplace=False)
      (3): Linear(in_features=41, out_features=2, bias=True)
    )
    (3): Sequential(
      (0): Linear(in_features=200, out_features=41, bias=True)
      (1): ReLU()
      (2): Dropout(p=0.2, inplace=False)
      (3): Linear(in_features=41, out_features=2, bias=True)
    )
    (4): Sequential(
      (0): Linear(in_features=200, out_features=41, bias=True)
      (1): ReLU()
      (2): Dropout(p=0.2, inplace=False)
      (3): Linear(in_features=41, out_features=2, bias=True)
    )
    (5): Sequential(
      (0): Linear(in_features=200, out_features=41, bias=True)
      (1): ReLU()
      (2): Dropout(p=0.2, inplace=False)
      (3): Linear(in_features=41, out_features=2, bias=True)
    )
    (6): Sequential(
      (0): Linear(in_features=200, out_features=41, bias=True)
      (1): ReLU()
      (2): Dropout(p=0.2, inplace=False)
      (3): Linear(in_features=41, out_features=2, bias=True)
    )
    (7): Sequential(
      (0): Linear(in_features=200, out_features=41, bias=True)
      (1): ReLU()
      (2): Dropout(p=0.2, inplace=False)
      (3): Linear(in_features=41, out_features=2, bias=True)
    )
    (8): Sequential(
      (0): Linear(in_features=200, out_features=41, bias=True)
      (1): ReLU()
      (2): Dropout(p=0.2, inplace=False)
      (3): Linear(in_features=41, out_features=2, bias=True)
    )
    (9): Sequential(
      (0): Linear(in_features=200, out_features=41, bias=True)
      (1): ReLU()
      (2): Dropout(p=0.2, inplace=False)
      (3): Linear(in_features=41, out_features=2, bias=True)
    )
    (10): Sequential(
      (0): Linear(in_features=200, out_features=41, bias=True)
      (1): ReLU()
      (2): Dropout(p=0.2, inplace=False)
      (3): Linear(in_features=41, out_features=2, bias=True)
    )
    (11): Sequential(
      (0): Linear(in_features=200, out_features=41, bias=True)
      (1): ReLU()
      (2): Dropout(p=0.2, inplace=False)
      (3): Linear(in_features=41, out_features=2, bias=True)
    )
    (12): Sequential(
      (0): Linear(in_features=200, out_features=41, bias=True)
      (1): ReLU()
      (2): Dropout(p=0.2, inplace=False)
      (3): Linear(in_features=41, out_features=2, bias=True)
    )
    (13): Sequential(
      (0): Linear(in_features=200, out_features=41, bias=True)
      (1): ReLU()
      (2): Dropout(p=0.2, inplace=False)
      (3): Linear(in_features=41, out_features=2, bias=True)
    )
    (14): Sequential(
      (0): Linear(in_features=200, out_features=41, bias=True)
      (1): ReLU()
      (2): Dropout(p=0.2, inplace=False)
      (3): Linear(in_features=41, out_features=2, bias=True)
    )
    (15): Sequential(
      (0): Linear(in_features=200, out_features=41, bias=True)
      (1): ReLU()
      (2): Dropout(p=0.2, inplace=False)
      (3): Linear(in_features=41, out_features=2, bias=True)
    )
    (16): Sequential(
      (0): Linear(in_features=200, out_features=41, bias=True)
      (1): ReLU()
      (2): Dropout(p=0.2, inplace=False)
      (3): Linear(in_features=41, out_features=2, bias=True)
    )
    (17): Sequential(
      (0): Linear(in_features=200, out_features=41, bias=True)
      (1): ReLU()
      (2): Dropout(p=0.2, inplace=False)
      (3): Linear(in_features=41, out_features=2, bias=True)
    )
    (18): Sequential(
      (0): Linear(in_features=200, out_features=41, bias=True)
      (1): ReLU()
      (2): Dropout(p=0.2, inplace=False)
      (3): Linear(in_features=41, out_features=2, bias=True)
    )
    (19): Sequential(
      (0): Linear(in_features=200, out_features=41, bias=True)
      (1): ReLU()
      (2): Dropout(p=0.2, inplace=False)
      (3): Linear(in_features=41, out_features=2, bias=True)
    )
    (20): Sequential(
      (0): Linear(in_features=200, out_features=41, bias=True)
      (1): ReLU()
      (2): Dropout(p=0.2, inplace=False)
      (3): Linear(in_features=41, out_features=2, bias=True)
    )
    (21): Sequential(
      (0): Linear(in_features=200, out_features=41, bias=True)
      (1): ReLU()
      (2): Dropout(p=0.2, inplace=False)
      (3): Linear(in_features=41, out_features=2, bias=True)
    )
    (22): Sequential(
      (0): Linear(in_features=200, out_features=41, bias=True)
      (1): ReLU()
      (2): Dropout(p=0.2, inplace=False)
      (3): Linear(in_features=41, out_features=2, bias=True)
    )
    (23): Sequential(
      (0): Linear(in_features=200, out_features=41, bias=True)
      (1): ReLU()
      (2): Dropout(p=0.2, inplace=False)
      (3): Linear(in_features=41, out_features=2, bias=True)
    )
    (24): Sequential(
      (0): Linear(in_features=200, out_features=41, bias=True)
      (1): ReLU()
      (2): Dropout(p=0.2, inplace=False)
      (3): Linear(in_features=41, out_features=2, bias=True)
    )
    (25): Sequential(
      (0): Linear(in_features=200, out_features=41, bias=True)
      (1): ReLU()
      (2): Dropout(p=0.2, inplace=False)
      (3): Linear(in_features=41, out_features=2, bias=True)
    )
    (26): Sequential(
      (0): Linear(in_features=200, out_features=41, bias=True)
      (1): ReLU()
      (2): Dropout(p=0.2, inplace=False)
      (3): Linear(in_features=41, out_features=2, bias=True)
    )
    (27): Sequential(
      (0): Linear(in_features=200, out_features=41, bias=True)
      (1): ReLU()
      (2): Dropout(p=0.2, inplace=False)
      (3): Linear(in_features=41, out_features=2, bias=True)
    )
    (28): Sequential(
      (0): Linear(in_features=200, out_features=41, bias=True)
      (1): ReLU()
      (2): Dropout(p=0.2, inplace=False)
      (3): Linear(in_features=41, out_features=2, bias=True)
    )
    (29): Sequential(
      (0): Linear(in_features=200, out_features=41, bias=True)
      (1): ReLU()
      (2): Dropout(p=0.2, inplace=False)
      (3): Linear(in_features=41, out_features=2, bias=True)
    )
    (30): Sequential(
      (0): Linear(in_features=200, out_features=41, bias=True)
      (1): ReLU()
      (2): Dropout(p=0.2, inplace=False)
      (3): Linear(in_features=41, out_features=2, bias=True)
    )
    (31): Sequential(
      (0): Linear(in_features=200, out_features=41, bias=True)
      (1): ReLU()
      (2): Dropout(p=0.2, inplace=False)
      (3): Linear(in_features=41, out_features=2, bias=True)
    )
    (32): Sequential(
      (0): Linear(in_features=200, out_features=41, bias=True)
      (1): ReLU()
      (2): Dropout(p=0.2, inplace=False)
      (3): Linear(in_features=41, out_features=2, bias=True)
    )
    (33): Sequential(
      (0): Linear(in_features=200, out_features=41, bias=True)
      (1): ReLU()
      (2): Dropout(p=0.2, inplace=False)
      (3): Linear(in_features=41, out_features=2, bias=True)
    )
    (34): Sequential(
      (0): Linear(in_features=200, out_features=41, bias=True)
      (1): ReLU()
      (2): Dropout(p=0.2, inplace=False)
      (3): Linear(in_features=41, out_features=2, bias=True)
    )
    (35): Sequential(
      (0): Linear(in_features=200, out_features=41, bias=True)
      (1): ReLU()
      (2): Dropout(p=0.2, inplace=False)
      (3): Linear(in_features=41, out_features=2, bias=True)
    )
    (36): Sequential(
      (0): Linear(in_features=200, out_features=41, bias=True)
      (1): ReLU()
      (2): Dropout(p=0.2, inplace=False)
      (3): Linear(in_features=41, out_features=2, bias=True)
    )
    (37): Sequential(
      (0): Linear(in_features=200, out_features=41, bias=True)
      (1): ReLU()
      (2): Dropout(p=0.2, inplace=False)
      (3): Linear(in_features=41, out_features=2, bias=True)
    )
    (38): Sequential(
      (0): Linear(in_features=200, out_features=41, bias=True)
      (1): ReLU()
      (2): Dropout(p=0.2, inplace=False)
      (3): Linear(in_features=41, out_features=2, bias=True)
    )
    (39): Sequential(
      (0): Linear(in_features=200, out_features=41, bias=True)
      (1): ReLU()
      (2): Dropout(p=0.2, inplace=False)
      (3): Linear(in_features=41, out_features=2, bias=True)
    )
    (40): Sequential(
      (0): Linear(in_features=200, out_features=41, bias=True)
      (1): ReLU()
      (2): Dropout(p=0.2, inplace=False)
      (3): Linear(in_features=41, out_features=2, bias=True)
    )
    (41): Sequential(
      (0): Linear(in_features=200, out_features=41, bias=True)
      (1): ReLU()
      (2): Dropout(p=0.2, inplace=False)
      (3): Linear(in_features=41, out_features=2, bias=True)
    )
    (42): Sequential(
      (0): Linear(in_features=200, out_features=41, bias=True)
      (1): ReLU()
      (2): Dropout(p=0.2, inplace=False)
      (3): Linear(in_features=41, out_features=2, bias=True)
    )
    (43): Sequential(
      (0): Linear(in_features=200, out_features=41, bias=True)
      (1): ReLU()
      (2): Dropout(p=0.2, inplace=False)
      (3): Linear(in_features=41, out_features=2, bias=True)
    )
    (44): Sequential(
      (0): Linear(in_features=200, out_features=41, bias=True)
      (1): ReLU()
      (2): Dropout(p=0.2, inplace=False)
      (3): Linear(in_features=41, out_features=2, bias=True)
    )
    (45): Sequential(
      (0): Linear(in_features=200, out_features=41, bias=True)
      (1): ReLU()
      (2): Dropout(p=0.2, inplace=False)
      (3): Linear(in_features=41, out_features=2, bias=True)
    )
    (46): Sequential(
      (0): Linear(in_features=200, out_features=41, bias=True)
      (1): ReLU()
      (2): Dropout(p=0.2, inplace=False)
      (3): Linear(in_features=41, out_features=2, bias=True)
    )
    (47): Sequential(
      (0): Linear(in_features=200, out_features=41, bias=True)
      (1): ReLU()
      (2): Dropout(p=0.2, inplace=False)
      (3): Linear(in_features=41, out_features=2, bias=True)
    )
    (48): Sequential(
      (0): Linear(in_features=200, out_features=41, bias=True)
      (1): ReLU()
      (2): Dropout(p=0.2, inplace=False)
      (3): Linear(in_features=41, out_features=2, bias=True)
    )
    (49): Sequential(
      (0): Linear(in_features=200, out_features=41, bias=True)
      (1): ReLU()
      (2): Dropout(p=0.2, inplace=False)
      (3): Linear(in_features=41, out_features=2, bias=True)
    )
    (50): Sequential(
      (0): Linear(in_features=200, out_features=41, bias=True)
      (1): ReLU()
      (2): Dropout(p=0.2, inplace=False)
      (3): Linear(in_features=41, out_features=2, bias=True)
    )
    (51): Sequential(
      (0): Linear(in_features=200, out_features=41, bias=True)
      (1): ReLU()
      (2): Dropout(p=0.2, inplace=False)
      (3): Linear(in_features=41, out_features=2, bias=True)
    )
    (52): Sequential(
      (0): Linear(in_features=200, out_features=41, bias=True)
      (1): ReLU()
      (2): Dropout(p=0.2, inplace=False)
      (3): Linear(in_features=41, out_features=2, bias=True)
    )
    (53): Sequential(
      (0): Linear(in_features=200, out_features=41, bias=True)
      (1): ReLU()
      (2): Dropout(p=0.2, inplace=False)
      (3): Linear(in_features=41, out_features=2, bias=True)
    )
    (54): Sequential(
      (0): Linear(in_features=200, out_features=41, bias=True)
      (1): ReLU()
      (2): Dropout(p=0.2, inplace=False)
      (3): Linear(in_features=41, out_features=2, bias=True)
    )
    (55): Sequential(
      (0): Linear(in_features=200, out_features=41, bias=True)
      (1): ReLU()
      (2): Dropout(p=0.2, inplace=False)
      (3): Linear(in_features=41, out_features=2, bias=True)
    )
    (56): Sequential(
      (0): Linear(in_features=200, out_features=41, bias=True)
      (1): ReLU()
      (2): Dropout(p=0.2, inplace=False)
      (3): Linear(in_features=41, out_features=2, bias=True)
    )
    (57): Sequential(
      (0): Linear(in_features=200, out_features=41, bias=True)
      (1): ReLU()
      (2): Dropout(p=0.2, inplace=False)
      (3): Linear(in_features=41, out_features=2, bias=True)
    )
    (58): Sequential(
      (0): Linear(in_features=200, out_features=41, bias=True)
      (1): ReLU()
      (2): Dropout(p=0.2, inplace=False)
      (3): Linear(in_features=41, out_features=2, bias=True)
    )
    (59): Sequential(
      (0): Linear(in_features=200, out_features=41, bias=True)
      (1): ReLU()
      (2): Dropout(p=0.2, inplace=False)
      (3): Linear(in_features=41, out_features=2, bias=True)
    )
    (60): Sequential(
      (0): Linear(in_features=200, out_features=41, bias=True)
      (1): ReLU()
      (2): Dropout(p=0.2, inplace=False)
      (3): Linear(in_features=41, out_features=2, bias=True)
    )
    (61): Sequential(
      (0): Linear(in_features=200, out_features=41, bias=True)
      (1): ReLU()
      (2): Dropout(p=0.2, inplace=False)
      (3): Linear(in_features=41, out_features=2, bias=True)
    )
    (62): Sequential(
      (0): Linear(in_features=200, out_features=41, bias=True)
      (1): ReLU()
      (2): Dropout(p=0.2, inplace=False)
      (3): Linear(in_features=41, out_features=2, bias=True)
    )
    (63): Sequential(
      (0): Linear(in_features=200, out_features=41, bias=True)
      (1): ReLU()
      (2): Dropout(p=0.2, inplace=False)
      (3): Linear(in_features=41, out_features=2, bias=True)
    )
    (64): Sequential(
      (0): Linear(in_features=200, out_features=41, bias=True)
      (1): ReLU()
      (2): Dropout(p=0.2, inplace=False)
      (3): Linear(in_features=41, out_features=2, bias=True)
    )
    (65): Sequential(
      (0): Linear(in_features=200, out_features=41, bias=True)
      (1): ReLU()
      (2): Dropout(p=0.2, inplace=False)
      (3): Linear(in_features=41, out_features=2, bias=True)
    )
    (66): Sequential(
      (0): Linear(in_features=200, out_features=41, bias=True)
      (1): ReLU()
      (2): Dropout(p=0.2, inplace=False)
      (3): Linear(in_features=41, out_features=2, bias=True)
    )
    (67): Sequential(
      (0): Linear(in_features=200, out_features=41, bias=True)
      (1): ReLU()
      (2): Dropout(p=0.2, inplace=False)
      (3): Linear(in_features=41, out_features=2, bias=True)
    )
    (68): Sequential(
      (0): Linear(in_features=200, out_features=41, bias=True)
      (1): ReLU()
      (2): Dropout(p=0.2, inplace=False)
      (3): Linear(in_features=41, out_features=2, bias=True)
    )
    (69): Sequential(
      (0): Linear(in_features=200, out_features=41, bias=True)
      (1): ReLU()
      (2): Dropout(p=0.2, inplace=False)
      (3): Linear(in_features=41, out_features=2, bias=True)
    )
    (70): Sequential(
      (0): Linear(in_features=200, out_features=41, bias=True)
      (1): ReLU()
      (2): Dropout(p=0.2, inplace=False)
      (3): Linear(in_features=41, out_features=2, bias=True)
    )
    (71): Sequential(
      (0): Linear(in_features=200, out_features=41, bias=True)
      (1): ReLU()
      (2): Dropout(p=0.2, inplace=False)
      (3): Linear(in_features=41, out_features=2, bias=True)
    )
    (72): Sequential(
      (0): Linear(in_features=200, out_features=41, bias=True)
      (1): ReLU()
      (2): Dropout(p=0.2, inplace=False)
      (3): Linear(in_features=41, out_features=2, bias=True)
    )
    (73): Sequential(
      (0): Linear(in_features=200, out_features=41, bias=True)
      (1): ReLU()
      (2): Dropout(p=0.2, inplace=False)
      (3): Linear(in_features=41, out_features=2, bias=True)
    )
    (74): Sequential(
      (0): Linear(in_features=200, out_features=41, bias=True)
      (1): ReLU()
      (2): Dropout(p=0.2, inplace=False)
      (3): Linear(in_features=41, out_features=2, bias=True)
    )
    (75): Sequential(
      (0): Linear(in_features=200, out_features=41, bias=True)
      (1): ReLU()
      (2): Dropout(p=0.2, inplace=False)
      (3): Linear(in_features=41, out_features=2, bias=True)
    )
    (76): Sequential(
      (0): Linear(in_features=200, out_features=41, bias=True)
      (1): ReLU()
      (2): Dropout(p=0.2, inplace=False)
      (3): Linear(in_features=41, out_features=2, bias=True)
    )
    (77): Sequential(
      (0): Linear(in_features=200, out_features=41, bias=True)
      (1): ReLU()
      (2): Dropout(p=0.2, inplace=False)
      (3): Linear(in_features=41, out_features=2, bias=True)
    )
    (78): Sequential(
      (0): Linear(in_features=200, out_features=41, bias=True)
      (1): ReLU()
      (2): Dropout(p=0.2, inplace=False)
      (3): Linear(in_features=41, out_features=2, bias=True)
    )
    (79): Sequential(
      (0): Linear(in_features=200, out_features=41, bias=True)
      (1): ReLU()
      (2): Dropout(p=0.2, inplace=False)
      (3): Linear(in_features=41, out_features=2, bias=True)
    )
    (80): Sequential(
      (0): Linear(in_features=200, out_features=41, bias=True)
      (1): ReLU()
      (2): Dropout(p=0.2, inplace=False)
      (3): Linear(in_features=41, out_features=2, bias=True)
    )
    (81): Sequential(
      (0): Linear(in_features=200, out_features=41, bias=True)
      (1): ReLU()
      (2): Dropout(p=0.2, inplace=False)
      (3): Linear(in_features=41, out_features=2, bias=True)
    )
    (82): Sequential(
      (0): Linear(in_features=200, out_features=41, bias=True)
      (1): ReLU()
      (2): Dropout(p=0.2, inplace=False)
      (3): Linear(in_features=41, out_features=2, bias=True)
    )
    (83): Sequential(
      (0): Linear(in_features=200, out_features=41, bias=True)
      (1): ReLU()
      (2): Dropout(p=0.2, inplace=False)
      (3): Linear(in_features=41, out_features=2, bias=True)
    )
    (84): Sequential(
      (0): Linear(in_features=200, out_features=41, bias=True)
      (1): ReLU()
      (2): Dropout(p=0.2, inplace=False)
      (3): Linear(in_features=41, out_features=2, bias=True)
    )
    (85): Sequential(
      (0): Linear(in_features=200, out_features=41, bias=True)
      (1): ReLU()
      (2): Dropout(p=0.2, inplace=False)
      (3): Linear(in_features=41, out_features=2, bias=True)
    )
    (86): Sequential(
      (0): Linear(in_features=200, out_features=41, bias=True)
      (1): ReLU()
      (2): Dropout(p=0.2, inplace=False)
      (3): Linear(in_features=41, out_features=2, bias=True)
    )
    (87): Sequential(
      (0): Linear(in_features=200, out_features=41, bias=True)
      (1): ReLU()
      (2): Dropout(p=0.2, inplace=False)
      (3): Linear(in_features=41, out_features=2, bias=True)
    )
    (88): Sequential(
      (0): Linear(in_features=200, out_features=41, bias=True)
      (1): ReLU()
      (2): Dropout(p=0.2, inplace=False)
      (3): Linear(in_features=41, out_features=2, bias=True)
    )
    (89): Sequential(
      (0): Linear(in_features=200, out_features=41, bias=True)
      (1): ReLU()
      (2): Dropout(p=0.2, inplace=False)
      (3): Linear(in_features=41, out_features=2, bias=True)
    )
    (90): Sequential(
      (0): Linear(in_features=200, out_features=41, bias=True)
      (1): ReLU()
      (2): Dropout(p=0.2, inplace=False)
      (3): Linear(in_features=41, out_features=2, bias=True)
    )
    (91): Sequential(
      (0): Linear(in_features=200, out_features=41, bias=True)
      (1): ReLU()
      (2): Dropout(p=0.2, inplace=False)
      (3): Linear(in_features=41, out_features=2, bias=True)
    )
    (92): Sequential(
      (0): Linear(in_features=200, out_features=41, bias=True)
      (1): ReLU()
      (2): Dropout(p=0.2, inplace=False)
      (3): Linear(in_features=41, out_features=2, bias=True)
    )
    (93): Sequential(
      (0): Linear(in_features=200, out_features=41, bias=True)
      (1): ReLU()
      (2): Dropout(p=0.2, inplace=False)
      (3): Linear(in_features=41, out_features=2, bias=True)
    )
    (94): Sequential(
      (0): Linear(in_features=200, out_features=41, bias=True)
      (1): ReLU()
      (2): Dropout(p=0.2, inplace=False)
      (3): Linear(in_features=41, out_features=2, bias=True)
    )
    (95): Sequential(
      (0): Linear(in_features=200, out_features=41, bias=True)
      (1): ReLU()
      (2): Dropout(p=0.2, inplace=False)
      (3): Linear(in_features=41, out_features=2, bias=True)
    )
    (96): Sequential(
      (0): Linear(in_features=200, out_features=41, bias=True)
      (1): ReLU()
      (2): Dropout(p=0.2, inplace=False)
      (3): Linear(in_features=41, out_features=2, bias=True)
    )
    (97): Sequential(
      (0): Linear(in_features=200, out_features=41, bias=True)
      (1): ReLU()
      (2): Dropout(p=0.2, inplace=False)
      (3): Linear(in_features=41, out_features=2, bias=True)
    )
    (98): Sequential(
      (0): Linear(in_features=200, out_features=41, bias=True)
      (1): ReLU()
      (2): Dropout(p=0.2, inplace=False)
      (3): Linear(in_features=41, out_features=2, bias=True)
    )
    (99): Sequential(
      (0): Linear(in_features=200, out_features=41, bias=True)
      (1): ReLU()
      (2): Dropout(p=0.2, inplace=False)
      (3): Linear(in_features=41, out_features=2, bias=True)
    )
    (100): Sequential(
      (0): Linear(in_features=200, out_features=41, bias=True)
      (1): ReLU()
      (2): Dropout(p=0.2, inplace=False)
      (3): Linear(in_features=41, out_features=2, bias=True)
    )
    (101): Sequential(
      (0): Linear(in_features=200, out_features=41, bias=True)
      (1): ReLU()
      (2): Dropout(p=0.2, inplace=False)
      (3): Linear(in_features=41, out_features=2, bias=True)
    )
    (102): Sequential(
      (0): Linear(in_features=200, out_features=41, bias=True)
      (1): ReLU()
      (2): Dropout(p=0.2, inplace=False)
      (3): Linear(in_features=41, out_features=2, bias=True)
    )
    (103): Sequential(
      (0): Linear(in_features=200, out_features=41, bias=True)
      (1): ReLU()
      (2): Dropout(p=0.2, inplace=False)
      (3): Linear(in_features=41, out_features=2, bias=True)
    )
    (104): Sequential(
      (0): Linear(in_features=200, out_features=41, bias=True)
      (1): ReLU()
      (2): Dropout(p=0.2, inplace=False)
      (3): Linear(in_features=41, out_features=2, bias=True)
    )
    (105): Sequential(
      (0): Linear(in_features=200, out_features=41, bias=True)
      (1): ReLU()
      (2): Dropout(p=0.2, inplace=False)
      (3): Linear(in_features=41, out_features=2, bias=True)
    )
    (106): Sequential(
      (0): Linear(in_features=200, out_features=41, bias=True)
      (1): ReLU()
      (2): Dropout(p=0.2, inplace=False)
      (3): Linear(in_features=41, out_features=2, bias=True)
    )
    (107): Sequential(
      (0): Linear(in_features=200, out_features=41, bias=True)
      (1): ReLU()
      (2): Dropout(p=0.2, inplace=False)
      (3): Linear(in_features=41, out_features=2, bias=True)
    )
    (108): Sequential(
      (0): Linear(in_features=200, out_features=41, bias=True)
      (1): ReLU()
      (2): Dropout(p=0.2, inplace=False)
      (3): Linear(in_features=41, out_features=2, bias=True)
    )
    (109): Sequential(
      (0): Linear(in_features=200, out_features=41, bias=True)
      (1): ReLU()
      (2): Dropout(p=0.2, inplace=False)
      (3): Linear(in_features=41, out_features=2, bias=True)
    )
    (110): Sequential(
      (0): Linear(in_features=200, out_features=41, bias=True)
      (1): ReLU()
      (2): Dropout(p=0.2, inplace=False)
      (3): Linear(in_features=41, out_features=2, bias=True)
    )
    (111): Sequential(
      (0): Linear(in_features=200, out_features=41, bias=True)
      (1): ReLU()
      (2): Dropout(p=0.2, inplace=False)
      (3): Linear(in_features=41, out_features=2, bias=True)
    )
    (112): Sequential(
      (0): Linear(in_features=200, out_features=41, bias=True)
      (1): ReLU()
      (2): Dropout(p=0.2, inplace=False)
      (3): Linear(in_features=41, out_features=2, bias=True)
    )
    (113): Sequential(
      (0): Linear(in_features=200, out_features=41, bias=True)
      (1): ReLU()
      (2): Dropout(p=0.2, inplace=False)
      (3): Linear(in_features=41, out_features=2, bias=True)
    )
    (114): Sequential(
      (0): Linear(in_features=200, out_features=41, bias=True)
      (1): ReLU()
      (2): Dropout(p=0.2, inplace=False)
      (3): Linear(in_features=41, out_features=2, bias=True)
    )
    (115): Sequential(
      (0): Linear(in_features=200, out_features=41, bias=True)
      (1): ReLU()
      (2): Dropout(p=0.2, inplace=False)
      (3): Linear(in_features=41, out_features=2, bias=True)
    )
    (116): Sequential(
      (0): Linear(in_features=200, out_features=41, bias=True)
      (1): ReLU()
      (2): Dropout(p=0.2, inplace=False)
      (3): Linear(in_features=41, out_features=2, bias=True)
    )
    (117): Sequential(
      (0): Linear(in_features=200, out_features=41, bias=True)
      (1): ReLU()
      (2): Dropout(p=0.2, inplace=False)
      (3): Linear(in_features=41, out_features=2, bias=True)
    )
    (118): Sequential(
      (0): Linear(in_features=200, out_features=41, bias=True)
      (1): ReLU()
      (2): Dropout(p=0.2, inplace=False)
      (3): Linear(in_features=41, out_features=2, bias=True)
    )
    (119): Sequential(
      (0): Linear(in_features=200, out_features=41, bias=True)
      (1): ReLU()
      (2): Dropout(p=0.2, inplace=False)
      (3): Linear(in_features=41, out_features=2, bias=True)
    )
    (120): Sequential(
      (0): Linear(in_features=200, out_features=41, bias=True)
      (1): ReLU()
      (2): Dropout(p=0.2, inplace=False)
      (3): Linear(in_features=41, out_features=2, bias=True)
    )
    (121): Sequential(
      (0): Linear(in_features=200, out_features=41, bias=True)
      (1): ReLU()
      (2): Dropout(p=0.2, inplace=False)
      (3): Linear(in_features=41, out_features=2, bias=True)
    )
    (122): Sequential(
      (0): Linear(in_features=200, out_features=41, bias=True)
      (1): ReLU()
      (2): Dropout(p=0.2, inplace=False)
      (3): Linear(in_features=41, out_features=2, bias=True)
    )
    (123): Sequential(
      (0): Linear(in_features=200, out_features=41, bias=True)
      (1): ReLU()
      (2): Dropout(p=0.2, inplace=False)
      (3): Linear(in_features=41, out_features=2, bias=True)
    )
    (124): Sequential(
      (0): Linear(in_features=200, out_features=41, bias=True)
      (1): ReLU()
      (2): Dropout(p=0.2, inplace=False)
      (3): Linear(in_features=41, out_features=2, bias=True)
    )
    (125): Sequential(
      (0): Linear(in_features=200, out_features=41, bias=True)
      (1): ReLU()
      (2): Dropout(p=0.2, inplace=False)
      (3): Linear(in_features=41, out_features=2, bias=True)
    )
    (126): Sequential(
      (0): Linear(in_features=200, out_features=41, bias=True)
      (1): ReLU()
      (2): Dropout(p=0.2, inplace=False)
      (3): Linear(in_features=41, out_features=2, bias=True)
    )
    (127): Sequential(
      (0): Linear(in_features=200, out_features=41, bias=True)
      (1): ReLU()
      (2): Dropout(p=0.2, inplace=False)
      (3): Linear(in_features=41, out_features=2, bias=True)
    )
    (128): Sequential(
      (0): Linear(in_features=200, out_features=41, bias=True)
      (1): ReLU()
      (2): Dropout(p=0.2, inplace=False)
      (3): Linear(in_features=41, out_features=2, bias=True)
    )
    (129): Sequential(
      (0): Linear(in_features=200, out_features=41, bias=True)
      (1): ReLU()
      (2): Dropout(p=0.2, inplace=False)
      (3): Linear(in_features=41, out_features=2, bias=True)
    )
    (130): Sequential(
      (0): Linear(in_features=200, out_features=41, bias=True)
      (1): ReLU()
      (2): Dropout(p=0.2, inplace=False)
      (3): Linear(in_features=41, out_features=2, bias=True)
    )
    (131): Sequential(
      (0): Linear(in_features=200, out_features=41, bias=True)
      (1): ReLU()
      (2): Dropout(p=0.2, inplace=False)
      (3): Linear(in_features=41, out_features=2, bias=True)
    )
    (132): Sequential(
      (0): Linear(in_features=200, out_features=41, bias=True)
      (1): ReLU()
      (2): Dropout(p=0.2, inplace=False)
      (3): Linear(in_features=41, out_features=2, bias=True)
    )
    (133): Sequential(
      (0): Linear(in_features=200, out_features=41, bias=True)
      (1): ReLU()
      (2): Dropout(p=0.2, inplace=False)
      (3): Linear(in_features=41, out_features=2, bias=True)
    )
    (134): Sequential(
      (0): Linear(in_features=200, out_features=41, bias=True)
      (1): ReLU()
      (2): Dropout(p=0.2, inplace=False)
      (3): Linear(in_features=41, out_features=2, bias=True)
    )
    (135): Sequential(
      (0): Linear(in_features=200, out_features=41, bias=True)
      (1): ReLU()
      (2): Dropout(p=0.2, inplace=False)
      (3): Linear(in_features=41, out_features=2, bias=True)
    )
    (136): Sequential(
      (0): Linear(in_features=200, out_features=41, bias=True)
      (1): ReLU()
      (2): Dropout(p=0.2, inplace=False)
      (3): Linear(in_features=41, out_features=2, bias=True)
    )
    (137): Sequential(
      (0): Linear(in_features=200, out_features=41, bias=True)
      (1): ReLU()
      (2): Dropout(p=0.2, inplace=False)
      (3): Linear(in_features=41, out_features=2, bias=True)
    )
    (138): Sequential(
      (0): Linear(in_features=200, out_features=41, bias=True)
      (1): ReLU()
      (2): Dropout(p=0.2, inplace=False)
      (3): Linear(in_features=41, out_features=2, bias=True)
    )
    (139): Sequential(
      (0): Linear(in_features=200, out_features=41, bias=True)
      (1): ReLU()
      (2): Dropout(p=0.2, inplace=False)
      (3): Linear(in_features=41, out_features=2, bias=True)
    )
    (140): Sequential(
      (0): Linear(in_features=200, out_features=41, bias=True)
      (1): ReLU()
      (2): Dropout(p=0.2, inplace=False)
      (3): Linear(in_features=41, out_features=2, bias=True)
    )
    (141): Sequential(
      (0): Linear(in_features=200, out_features=41, bias=True)
      (1): ReLU()
      (2): Dropout(p=0.2, inplace=False)
      (3): Linear(in_features=41, out_features=2, bias=True)
    )
    (142): Sequential(
      (0): Linear(in_features=200, out_features=41, bias=True)
      (1): ReLU()
      (2): Dropout(p=0.2, inplace=False)
      (3): Linear(in_features=41, out_features=2, bias=True)
    )
    (143): Sequential(
      (0): Linear(in_features=200, out_features=41, bias=True)
      (1): ReLU()
      (2): Dropout(p=0.2, inplace=False)
      (3): Linear(in_features=41, out_features=2, bias=True)
    )
    (144): Sequential(
      (0): Linear(in_features=200, out_features=41, bias=True)
      (1): ReLU()
      (2): Dropout(p=0.2, inplace=False)
      (3): Linear(in_features=41, out_features=2, bias=True)
    )
    (145): Sequential(
      (0): Linear(in_features=200, out_features=41, bias=True)
      (1): ReLU()
      (2): Dropout(p=0.2, inplace=False)
      (3): Linear(in_features=41, out_features=2, bias=True)
    )
    (146): Sequential(
      (0): Linear(in_features=200, out_features=41, bias=True)
      (1): ReLU()
      (2): Dropout(p=0.2, inplace=False)
      (3): Linear(in_features=41, out_features=2, bias=True)
    )
    (147): Sequential(
      (0): Linear(in_features=200, out_features=41, bias=True)
      (1): ReLU()
      (2): Dropout(p=0.2, inplace=False)
      (3): Linear(in_features=41, out_features=2, bias=True)
    )
    (148): Sequential(
      (0): Linear(in_features=200, out_features=41, bias=True)
      (1): ReLU()
      (2): Dropout(p=0.2, inplace=False)
      (3): Linear(in_features=41, out_features=2, bias=True)
    )
    (149): Sequential(
      (0): Linear(in_features=200, out_features=41, bias=True)
      (1): ReLU()
      (2): Dropout(p=0.2, inplace=False)
      (3): Linear(in_features=41, out_features=2, bias=True)
    )
    (150): Sequential(
      (0): Linear(in_features=200, out_features=41, bias=True)
      (1): ReLU()
      (2): Dropout(p=0.2, inplace=False)
      (3): Linear(in_features=41, out_features=2, bias=True)
    )
    (151): Sequential(
      (0): Linear(in_features=200, out_features=41, bias=True)
      (1): ReLU()
      (2): Dropout(p=0.2, inplace=False)
      (3): Linear(in_features=41, out_features=2, bias=True)
    )
    (152): Sequential(
      (0): Linear(in_features=200, out_features=41, bias=True)
      (1): ReLU()
      (2): Dropout(p=0.2, inplace=False)
      (3): Linear(in_features=41, out_features=2, bias=True)
    )
    (153): Sequential(
      (0): Linear(in_features=200, out_features=41, bias=True)
      (1): ReLU()
      (2): Dropout(p=0.2, inplace=False)
      (3): Linear(in_features=41, out_features=2, bias=True)
    )
    (154): Sequential(
      (0): Linear(in_features=200, out_features=41, bias=True)
      (1): ReLU()
      (2): Dropout(p=0.2, inplace=False)
      (3): Linear(in_features=41, out_features=2, bias=True)
    )
    (155): Sequential(
      (0): Linear(in_features=200, out_features=41, bias=True)
      (1): ReLU()
      (2): Dropout(p=0.2, inplace=False)
      (3): Linear(in_features=41, out_features=2, bias=True)
    )
    (156): Sequential(
      (0): Linear(in_features=200, out_features=41, bias=True)
      (1): ReLU()
      (2): Dropout(p=0.2, inplace=False)
      (3): Linear(in_features=41, out_features=2, bias=True)
    )
    (157): Sequential(
      (0): Linear(in_features=200, out_features=41, bias=True)
      (1): ReLU()
      (2): Dropout(p=0.2, inplace=False)
      (3): Linear(in_features=41, out_features=2, bias=True)
    )
    (158): Sequential(
      (0): Linear(in_features=200, out_features=41, bias=True)
      (1): ReLU()
      (2): Dropout(p=0.2, inplace=False)
      (3): Linear(in_features=41, out_features=2, bias=True)
    )
    (159): Sequential(
      (0): Linear(in_features=200, out_features=41, bias=True)
      (1): ReLU()
      (2): Dropout(p=0.2, inplace=False)
      (3): Linear(in_features=41, out_features=2, bias=True)
    )
    (160): Sequential(
      (0): Linear(in_features=200, out_features=41, bias=True)
      (1): ReLU()
      (2): Dropout(p=0.2, inplace=False)
      (3): Linear(in_features=41, out_features=2, bias=True)
    )
    (161): Sequential(
      (0): Linear(in_features=200, out_features=41, bias=True)
      (1): ReLU()
      (2): Dropout(p=0.2, inplace=False)
      (3): Linear(in_features=41, out_features=2, bias=True)
    )
    (162): Sequential(
      (0): Linear(in_features=200, out_features=41, bias=True)
      (1): ReLU()
      (2): Dropout(p=0.2, inplace=False)
      (3): Linear(in_features=41, out_features=2, bias=True)
    )
    (163): Sequential(
      (0): Linear(in_features=200, out_features=41, bias=True)
      (1): ReLU()
      (2): Dropout(p=0.2, inplace=False)
      (3): Linear(in_features=41, out_features=2, bias=True)
    )
    (164): Sequential(
      (0): Linear(in_features=200, out_features=41, bias=True)
      (1): ReLU()
      (2): Dropout(p=0.2, inplace=False)
      (3): Linear(in_features=41, out_features=2, bias=True)
    )
    (165): Sequential(
      (0): Linear(in_features=200, out_features=41, bias=True)
      (1): ReLU()
      (2): Dropout(p=0.2, inplace=False)
      (3): Linear(in_features=41, out_features=2, bias=True)
    )
  )
  (gumbel_connector): GumbelConnector()
  (CELoss): CrossEntropyLoss()
  (BCELoss): BCEWithLogitsLoss()
)
INFO:root:Planner initialization is done
INFO:root:start imitation
INFO:root:TRAIN | step 0 | Loss 5274.98 | Loss-plan 10.0704 | Loss-pred 434.876 | Loss-state 1.6104 | Loss-KL 0.0 | Loss-Term 4.24268 | | Plan F1 0.0 | Plan P 0.0 | Plan R 0.0| Pred F1 0.04654 | Pred P 0.02456 | Pred R 0.5303| State F1 0.08524 | State P 0.04745 | State R 0.5039| Term F1 0.04857 | Term P 0.06905 | Term R 0.06964
…
